…
I0301 10:39:56.135630  8544 net.cpp:294] The NetState phase (0) differed from the phase (1) specified by a rule in layer accuracy
I0301 10:39:56.135725  8544 net.cpp:51] Initializing net from parameters: 
name: "CaffeNet"
state {
  phase: TRAIN
  level: 0
  stage: ""
}
layer {
  name: "data"
  type: "Data"
  top: "data"
  top: "label"
  include {
    phase: TRAIN
  }
  transform_param {
    mirror: true
    crop_size: 227
    mean_file: "/home/rbruce/caffeV2/adbloq/databases/mean.binaryproto"
  }
  data_param {
    source: "/home/rbruce/caffeV2/adbloq/databases/train_lmdb"
    batch_size: 256
    backend: LMDB
  }
}
layer {
  name: "conv1"
  type: "Convolution"
  bottom: "data"
  top: "conv1"
  param {
    lr_mult: 1
    decay_mult: 1
  }
  param {
    lr_mult: 2
    decay_mult: 0
  }
  convolution_param {
    num_output: 96
    kernel_size: 11
    stride: 4
    weight_filler {
      type: "gaussian"
      std: 0.01
    }
    bias_filler {
      type: "constant"
      value: 0
    }
  }
}
layer {
  name: "relu1"
  type: "ReLU"
  bottom: "conv1"
  top: "conv1"
}
layer {
  name: "pool1"
  type: "Pooling"
  bottom: "conv1"
  top: "pool1"
  pooling_param {
    pool: MAX
    kernel_size: 3
    stride: 2
  }
}
layer {
  name: "norm1"
  type: "LRN"
  bottom: "pool1"
  top: "norm1"
  lrn_param {
    local_size: 5
    alpha: 0.0001
    beta: 0.75
  }
}
layer {
  name: "conv2"
  type: "Convolution"
  bottom: "norm1"
  top: "conv2"
  param {
    lr_mult: 1
    decay_mult: 1
  }
  param {
    lr_mult: 2
    decay_mult: 0
  }
  convolution_param {
    num_output: 256
    pad: 2
    kernel_size: 5
    group: 2
    weight_filler {
      type: "gaussian"
      std: 0.01
    }
    bias_filler {
      type: "constant"
      value: 1
    }
  }
}
layer {
  name: "relu2"
  type: "ReLU"
  bottom: "conv2"
  top: "conv2"
}
layer {
  name: "pool2"
  type: "Pooling"
  bottom: "conv2"
  top: "pool2"
  pooling_param {
    pool: MAX
    kernel_size: 3
    stride: 2
  }
}
layer {
  name: "norm2"
  type: "LRN"
  bottom: "pool2"
  top: "norm2"
  lrn_param {
    local_size: 5
    alpha: 0.0001
    beta: 0.75
  }
}
layer {
  name: "conv3"
  type: "Convolution"
  bottom: "norm2"
  top: "conv3"
  param {
    lr_mult: 1
    decay_mult: 1
  }
  param {
    lr_mult: 2
    decay_mult: 0
  }
  convolution_param {
    num_output: 384
    pad: 1
    kernel_size: 3
    weight_filler {
      type: "gaussian"
      std: 0.01
    }
    bias_filler {
      type: "constant"
      value: 0
    }
  }
}
layer {
  name: "relu3"
  type: "ReLU"
  bottom: "conv3"
  top: "conv3"
}
layer {
  name: "conv4"
  type: "Convolution"
  bottom: "conv3"
  top: "conv4"
  param {
    lr_mult: 1
    decay_mult: 1
  }
  param {
    lr_mult: 2
    decay_mult: 0
  }
  convolution_param {
    num_output: 384
    pad: 1
    kernel_size: 3
    group: 2
    weight_filler {
      type: "gaussian"
      std: 0.01
    }
    bias_filler {
      type: "constant"
      value: 1
    }
  }
}
layer {
  name: "relu4"
  type: "ReLU"
  bottom: "conv4"
  top: "conv4"
}
layer {
  name: "conv5"
  type: "Convolution"
  bottom: "conv4"
  top: "conv5"
  param {
    lr_mult: 1
    decay_mult: 1
  }
  param {
    lr_mult: 2
    decay_mult: 0
  }
  convolution_param {
    num_output: 256
    pad: 1
    kernel_size: 3
    group: 2
    weight_filler {
      type: "gaussian"
      std: 0.01
    }
    bias_filler {
      type: "constant"
      value: 1
    }
  }
}
layer {
  name: "relu5"
  type: "ReLU"
  bottom: "conv5"
  top: "conv5"
}
layer {
  name: "pool5"
  type: "Pooling"
  bottom: "conv5"
  top: "pool5"
  pooling_param {
    pool: MAX
    kernel_size: 3
    stride: 2
  }
}
layer {
  name: "fc6"
  type: "InnerProduct"
  bottom: "pool5"
  top: "fc6"
  param {
    lr_mult: 1
    decay_mult: 1
  }
  param {
    lr_mult: 2
    decay_mult: 0
  }
  inner_product_param {
    num_output: 4096
    weight_filler {
      type: "gaussian"
      std: 0.005
    }
    bias_filler {
      type: "constant"
      value: 1
    }
  }
}
layer {
  name: "relu6"
  type: "ReLU"
  bottom: "fc6"
  top: "fc6"
}
layer {
  name: "drop6"
  type: "Dropout"
  bottom: "fc6"
  top: "fc6"
  dropout_param {
    dropout_ratio: 0.5
  }
}
layer {
  name: "fc7"
  type: "InnerProduct"
  bottom: "fc6"
  top: "fc7"
  param {
    lr_mult: 1
    decay_mult: 1
  }
  param {
    lr_mult: 2
    decay_mult: 0
  }
  inner_product_param {
    num_output: 4096
    weight_filler {
      type: "gaussian"
      std: 0.005
    }
    bias_filler {
      type: "constant"
      value: 1
    }
  }
}
layer {
  name: "relu7"
  type: "ReLU"
  bottom: "fc7"
  top: "fc7"
}
layer {
  name: "drop7"
  type: "Dropout"
  bottom: "fc7"
  top: "fc7"
  dropout_param {
    dropout_ratio: 0.5
  }
}
layer {
  name: "fc8"
  type: "InnerProduct"
  bottom: "fc7"
  top: "fc8"
  param {
    lr_mult: 1
    decay_mult: 1
  }
  param {
    lr_mult: 2
    decay_mult: 0
  }
  inner_product_param {
    num_output: 2
    weight_filler {
      type: "gaussian"
      std: 0.01
    }
    bias_filler {
      type: "constant"
      value: 0
    }
  }
}
layer {
  name: "loss"
  type: "SoftmaxWithLoss"
  bottom: "fc8"
  bottom: "label"
  top: "loss"
}
I0301 10:39:56.135793  8544 layer_factory.hpp:77] Creating layer data
I0301 10:39:56.135856  8544 db_lmdb.cpp:35] Opened lmdb /home/rbruce/caffeV2/adbloq/databases/train_lmdb
I0301 10:39:56.135870  8544 net.cpp:84] Creating Layer data
I0301 10:39:56.135875  8544 net.cpp:380] data -> data
I0301 10:39:56.135888  8544 net.cpp:380] data -> label
I0301 10:39:56.135897  8544 data_transformer.cpp:25] Loading mean file from: /home/rbruce/caffeV2/adbloq/databases/mean.binaryproto
I0301 10:39:56.137990  8544 data_layer.cpp:45] output data size: 256,3,227,227
I0301 10:39:56.316494  8544 net.cpp:122] Setting up data
I0301 10:39:56.316512  8544 net.cpp:129] Top shape: 256 3 227 227 (39574272)
I0301 10:39:56.316515  8544 net.cpp:129] Top shape: 256 (256)
I0301 10:39:56.316517  8544 net.cpp:137] Memory required for data: 158298112
I0301 10:39:56.316524  8544 layer_factory.hpp:77] Creating layer conv1
I0301 10:39:56.316543  8544 net.cpp:84] Creating Layer conv1
I0301 10:39:56.316546  8544 net.cpp:406] conv1 <- data
I0301 10:39:56.316555  8544 net.cpp:380] conv1 -> conv1
I0301 10:39:56.330302  8544 net.cpp:122] Setting up conv1
I0301 10:39:56.330318  8544 net.cpp:129] Top shape: 256 96 55 55 (74342400)
I0301 10:39:56.330320  8544 net.cpp:137] Memory required for data: 455667712
I0301 10:39:56.330332  8544 layer_factory.hpp:77] Creating layer relu1
I0301 10:39:56.330339  8544 net.cpp:84] Creating Layer relu1
I0301 10:39:56.330343  8544 net.cpp:406] relu1 <- conv1
I0301 10:39:56.330346  8544 net.cpp:367] relu1 -> conv1 (in-place)
I0301 10:39:56.330353  8544 net.cpp:122] Setting up relu1
I0301 10:39:56.330355  8544 net.cpp:129] Top shape: 256 96 55 55 (74342400)
I0301 10:39:56.330358  8544 net.cpp:137] Memory required for data: 753037312
I0301 10:39:56.330358  8544 layer_factory.hpp:77] Creating layer pool1
I0301 10:39:56.330363  8544 net.cpp:84] Creating Layer pool1
I0301 10:39:56.330364  8544 net.cpp:406] pool1 <- conv1
I0301 10:39:56.330366  8544 net.cpp:380] pool1 -> pool1
I0301 10:39:56.330396  8544 net.cpp:122] Setting up pool1
I0301 10:39:56.330400  8544 net.cpp:129] Top shape: 256 96 27 27 (17915904)
I0301 10:39:56.330402  8544 net.cpp:137] Memory required for data: 824700928
I0301 10:39:56.330404  8544 layer_factory.hpp:77] Creating layer norm1
I0301 10:39:56.330416  8544 net.cpp:84] Creating Layer norm1
I0301 10:39:56.330418  8544 net.cpp:406] norm1 <- pool1
I0301 10:39:56.330421  8544 net.cpp:380] norm1 -> norm1
I0301 10:39:56.330446  8544 net.cpp:122] Setting up norm1
I0301 10:39:56.330451  8544 net.cpp:129] Top shape: 256 96 27 27 (17915904)
I0301 10:39:56.330451  8544 net.cpp:137] Memory required for data: 896364544
I0301 10:39:56.330453  8544 layer_factory.hpp:77] Creating layer conv2
I0301 10:39:56.330458  8544 net.cpp:84] Creating Layer conv2
I0301 10:39:56.330461  8544 net.cpp:406] conv2 <- norm1
I0301 10:39:56.330463  8544 net.cpp:380] conv2 -> conv2
I0301 10:39:56.337086  8544 net.cpp:122] Setting up conv2
I0301 10:39:56.337095  8544 net.cpp:129] Top shape: 256 256 27 27 (47775744)
I0301 10:39:56.337097  8544 net.cpp:137] Memory required for data: 1087467520
I0301 10:39:56.337102  8544 layer_factory.hpp:77] Creating layer relu2
I0301 10:39:56.337106  8544 net.cpp:84] Creating Layer relu2
I0301 10:39:56.337108  8544 net.cpp:406] relu2 <- conv2
I0301 10:39:56.337111  8544 net.cpp:367] relu2 -> conv2 (in-place)
I0301 10:39:56.337115  8544 net.cpp:122] Setting up relu2
I0301 10:39:56.337116  8544 net.cpp:129] Top shape: 256 256 27 27 (47775744)
I0301 10:39:56.337118  8544 net.cpp:137] Memory required for data: 1278570496
I0301 10:39:56.337121  8544 layer_factory.hpp:77] Creating layer pool2
I0301 10:39:56.337123  8544 net.cpp:84] Creating Layer pool2
I0301 10:39:56.337124  8544 net.cpp:406] pool2 <- conv2
I0301 10:39:56.337126  8544 net.cpp:380] pool2 -> pool2
I0301 10:39:56.337148  8544 net.cpp:122] Setting up pool2
I0301 10:39:56.337152  8544 net.cpp:129] Top shape: 256 256 13 13 (11075584)
I0301 10:39:56.337153  8544 net.cpp:137] Memory required for data: 1322872832
I0301 10:39:56.337155  8544 layer_factory.hpp:77] Creating layer norm2
I0301 10:39:56.337158  8544 net.cpp:84] Creating Layer norm2
I0301 10:39:56.337160  8544 net.cpp:406] norm2 <- pool2
I0301 10:39:56.337162  8544 net.cpp:380] norm2 -> norm2
I0301 10:39:56.337180  8544 net.cpp:122] Setting up norm2
I0301 10:39:56.337182  8544 net.cpp:129] Top shape: 256 256 13 13 (11075584)
I0301 10:39:56.337184  8544 net.cpp:137] Memory required for data: 1367175168
I0301 10:39:56.337185  8544 layer_factory.hpp:77] Creating layer conv3
I0301 10:39:56.337190  8544 net.cpp:84] Creating Layer conv3
I0301 10:39:56.337193  8544 net.cpp:406] conv3 <- norm2
I0301 10:39:56.337195  8544 net.cpp:380] conv3 -> conv3
I0301 10:39:56.355425  8544 net.cpp:122] Setting up conv3
I0301 10:39:56.355438  8544 net.cpp:129] Top shape: 256 384 13 13 (16613376)
I0301 10:39:56.355440  8544 net.cpp:137] Memory required for data: 1433628672
I0301 10:39:56.355448  8544 layer_factory.hpp:77] Creating layer relu3
I0301 10:39:56.355453  8544 net.cpp:84] Creating Layer relu3
I0301 10:39:56.355455  8544 net.cpp:406] relu3 <- conv3
I0301 10:39:56.355458  8544 net.cpp:367] relu3 -> conv3 (in-place)
I0301 10:39:56.355463  8544 net.cpp:122] Setting up relu3
I0301 10:39:56.355466  8544 net.cpp:129] Top shape: 256 384 13 13 (16613376)
I0301 10:39:56.355468  8544 net.cpp:137] Memory required for data: 1500082176
I0301 10:39:56.355469  8544 layer_factory.hpp:77] Creating layer conv4
I0301 10:39:56.355474  8544 net.cpp:84] Creating Layer conv4
I0301 10:39:56.355476  8544 net.cpp:406] conv4 <- conv3
I0301 10:39:56.355479  8544 net.cpp:380] conv4 -> conv4
I0301 10:39:56.369149  8544 net.cpp:122] Setting up conv4
I0301 10:39:56.369163  8544 net.cpp:129] Top shape: 256 384 13 13 (16613376)
I0301 10:39:56.369164  8544 net.cpp:137] Memory required for data: 1566535680
I0301 10:39:56.369168  8544 layer_factory.hpp:77] Creating layer relu4
I0301 10:39:56.369174  8544 net.cpp:84] Creating Layer relu4
I0301 10:39:56.369176  8544 net.cpp:406] relu4 <- conv4
I0301 10:39:56.369179  8544 net.cpp:367] relu4 -> conv4 (in-place)
I0301 10:39:56.369184  8544 net.cpp:122] Setting up relu4
I0301 10:39:56.369186  8544 net.cpp:129] Top shape: 256 384 13 13 (16613376)
I0301 10:39:56.369189  8544 net.cpp:137] Memory required for data: 1632989184
I0301 10:39:56.369189  8544 layer_factory.hpp:77] Creating layer conv5
I0301 10:39:56.369205  8544 net.cpp:84] Creating Layer conv5
I0301 10:39:56.369209  8544 net.cpp:406] conv5 <- conv4
I0301 10:39:56.369213  8544 net.cpp:380] conv5 -> conv5
I0301 10:39:56.378665  8544 net.cpp:122] Setting up conv5
I0301 10:39:56.378680  8544 net.cpp:129] Top shape: 256 256 13 13 (11075584)
I0301 10:39:56.378684  8544 net.cpp:137] Memory required for data: 1677291520
I0301 10:39:56.378691  8544 layer_factory.hpp:77] Creating layer relu5
I0301 10:39:56.378697  8544 net.cpp:84] Creating Layer relu5
I0301 10:39:56.378700  8544 net.cpp:406] relu5 <- conv5
I0301 10:39:56.378702  8544 net.cpp:367] relu5 -> conv5 (in-place)
I0301 10:39:56.378707  8544 net.cpp:122] Setting up relu5
I0301 10:39:56.378710  8544 net.cpp:129] Top shape: 256 256 13 13 (11075584)
I0301 10:39:56.378715  8544 net.cpp:137] Memory required for data: 1721593856
I0301 10:39:56.378716  8544 layer_factory.hpp:77] Creating layer pool5
I0301 10:39:56.378720  8544 net.cpp:84] Creating Layer pool5
I0301 10:39:56.378721  8544 net.cpp:406] pool5 <- conv5
I0301 10:39:56.378724  8544 net.cpp:380] pool5 -> pool5
I0301 10:39:56.378747  8544 net.cpp:122] Setting up pool5
I0301 10:39:56.378751  8544 net.cpp:129] Top shape: 256 256 6 6 (2359296)
I0301 10:39:56.378752  8544 net.cpp:137] Memory required for data: 1731031040
I0301 10:39:56.378753  8544 layer_factory.hpp:77] Creating layer fc6
I0301 10:39:56.378759  8544 net.cpp:84] Creating Layer fc6
I0301 10:39:56.378760  8544 net.cpp:406] fc6 <- pool5
I0301 10:39:56.378763  8544 net.cpp:380] fc6 -> fc6
I0301 10:39:56.507287  8550 data_layer.cpp:73] Restarting data prefetching from start.
I0301 10:39:56.681936  8550 data_layer.cpp:73] Restarting data prefetching from start.
I0301 10:39:56.856571  8550 data_layer.cpp:73] Restarting data prefetching from start.
I0301 10:39:57.144325  8544 net.cpp:122] Setting up fc6
I0301 10:39:57.144341  8544 net.cpp:129] Top shape: 256 4096 (1048576)
I0301 10:39:57.144343  8544 net.cpp:137] Memory required for data: 1735225344
I0301 10:39:57.144349  8544 layer_factory.hpp:77] Creating layer relu6
I0301 10:39:57.144356  8544 net.cpp:84] Creating Layer relu6
I0301 10:39:57.144357  8544 net.cpp:406] relu6 <- fc6
I0301 10:39:57.144361  8544 net.cpp:367] relu6 -> fc6 (in-place)
I0301 10:39:57.144366  8544 net.cpp:122] Setting up relu6
I0301 10:39:57.144368  8544 net.cpp:129] Top shape: 256 4096 (1048576)
I0301 10:39:57.144371  8544 net.cpp:137] Memory required for data: 1739419648
I0301 10:39:57.144372  8544 layer_factory.hpp:77] Creating layer drop6
I0301 10:39:57.144376  8544 net.cpp:84] Creating Layer drop6
I0301 10:39:57.144376  8544 net.cpp:406] drop6 <- fc6
I0301 10:39:57.144379  8544 net.cpp:367] drop6 -> fc6 (in-place)
I0301 10:39:57.144392  8544 net.cpp:122] Setting up drop6
I0301 10:39:57.144394  8544 net.cpp:129] Top shape: 256 4096 (1048576)
I0301 10:39:57.144397  8544 net.cpp:137] Memory required for data: 1743613952
I0301 10:39:57.144398  8544 layer_factory.hpp:77] Creating layer fc7
I0301 10:39:57.144402  8544 net.cpp:84] Creating Layer fc7
I0301 10:39:57.144403  8544 net.cpp:406] fc7 <- fc6
I0301 10:39:57.144405  8544 net.cpp:380] fc7 -> fc7
I0301 10:39:57.483206  8544 net.cpp:122] Setting up fc7
I0301 10:39:57.483222  8544 net.cpp:129] Top shape: 256 4096 (1048576)
I0301 10:39:57.483223  8544 net.cpp:137] Memory required for data: 1747808256
I0301 10:39:57.483228  8544 layer_factory.hpp:77] Creating layer relu7
I0301 10:39:57.483234  8544 net.cpp:84] Creating Layer relu7
I0301 10:39:57.483237  8544 net.cpp:406] relu7 <- fc7
I0301 10:39:57.483240  8544 net.cpp:367] relu7 -> fc7 (in-place)
I0301 10:39:57.483245  8544 net.cpp:122] Setting up relu7
I0301 10:39:57.483247  8544 net.cpp:129] Top shape: 256 4096 (1048576)
I0301 10:39:57.483249  8544 net.cpp:137] Memory required for data: 1752002560
I0301 10:39:57.483250  8544 layer_factory.hpp:77] Creating layer drop7
I0301 10:39:57.483254  8544 net.cpp:84] Creating Layer drop7
I0301 10:39:57.483255  8544 net.cpp:406] drop7 <- fc7
I0301 10:39:57.483258  8544 net.cpp:367] drop7 -> fc7 (in-place)
I0301 10:39:57.483279  8544 net.cpp:122] Setting up drop7
I0301 10:39:57.483283  8544 net.cpp:129] Top shape: 256 4096 (1048576)
I0301 10:39:57.483285  8544 net.cpp:137] Memory required for data: 1756196864
I0301 10:39:57.483286  8544 layer_factory.hpp:77] Creating layer fc8
I0301 10:39:57.483290  8544 net.cpp:84] Creating Layer fc8
I0301 10:39:57.483292  8544 net.cpp:406] fc8 <- fc7
I0301 10:39:57.483294  8544 net.cpp:380] fc8 -> fc8
I0301 10:39:57.484025  8544 net.cpp:122] Setting up fc8
I0301 10:39:57.484030  8544 net.cpp:129] Top shape: 256 2 (512)
I0301 10:39:57.484032  8544 net.cpp:137] Memory required for data: 1756198912
I0301 10:39:57.484035  8544 layer_factory.hpp:77] Creating layer loss
I0301 10:39:57.484042  8544 net.cpp:84] Creating Layer loss
I0301 10:39:57.484045  8544 net.cpp:406] loss <- fc8
I0301 10:39:57.484046  8544 net.cpp:406] loss <- label
I0301 10:39:57.484050  8544 net.cpp:380] loss -> loss
I0301 10:39:57.484058  8544 layer_factory.hpp:77] Creating layer loss
…
I0301 10:39:57.484549  8544 net.cpp:294] The NetState phase (1) differed from the phase (0) specified by a rule in layer data
I0301 10:39:57.484649  8544 net.cpp:51] Initializing net from parameters: 
name: "CaffeNet"
state {
  phase: TEST
}
layer {
  name: "data"
  type: "Data"
  top: "data"
  top: "label"
  include {
    phase: TEST
  }
  transform_param {
    mirror: false
    crop_size: 227
    mean_file: "/home/rbruce/caffeV2/adbloq/databases/mean.binaryproto"
  }
  data_param {
    source: "/home/rbruce/caffeV2/adbloq/databases/validation_lmdb"
    batch_size: 50
    backend: LMDB
  }
}
layer {
  name: "conv1"
  type: "Convolution"
  bottom: "data"
  top: "conv1"
  param {
    lr_mult: 1
    decay_mult: 1
  }
  param {
    lr_mult: 2
    decay_mult: 0
  }
  convolution_param {
    num_output: 96
    kernel_size: 11
    stride: 4
    weight_filler {
      type: "gaussian"
      std: 0.01
    }
    bias_filler {
      type: "constant"
      value: 0
    }
  }
}
layer {
  name: "relu1"
  type: "ReLU"
  bottom: "conv1"
  top: "conv1"
}
layer {
  name: "pool1"
  type: "Pooling"
  bottom: "conv1"
  top: "pool1"
  pooling_param {
    pool: MAX
    kernel_size: 3
    stride: 2
  }
}
layer {
  name: "norm1"
  type: "LRN"
  bottom: "pool1"
  top: "norm1"
  lrn_param {
    local_size: 5
    alpha: 0.0001
    beta: 0.75
  }
}
layer {
  name: "conv2"
  type: "Convolution"
  bottom: "norm1"
  top: "conv2"
  param {
    lr_mult: 1
    decay_mult: 1
  }
  param {
    lr_mult: 2
    decay_mult: 0
  }
  convolution_param {
    num_output: 256
    pad: 2
    kernel_size: 5
    group: 2
    weight_filler {
      type: "gaussian"
      std: 0.01
    }
    bias_filler {
      type: "constant"
      value: 1
    }
  }
}
layer {
  name: "relu2"
  type: "ReLU"
  bottom: "conv2"
  top: "conv2"
}
layer {
  name: "pool2"
  type: "Pooling"
  bottom: "conv2"
  top: "pool2"
  pooling_param {
    pool: MAX
    kernel_size: 3
    stride: 2
  }
}
layer {
  name: "norm2"
  type: "LRN"
  bottom: "pool2"
  top: "norm2"
  lrn_param {
    local_size: 5
    alpha: 0.0001
    beta: 0.75
  }
}
layer {
  name: "conv3"
  type: "Convolution"
  bottom: "norm2"
  top: "conv3"
  param {
    lr_mult: 1
    decay_mult: 1
  }
  param {
    lr_mult: 2
    decay_mult: 0
  }
  convolution_param {
    num_output: 384
    pad: 1
    kernel_size: 3
    weight_filler {
      type: "gaussian"
      std: 0.01
    }
    bias_filler {
      type: "constant"
      value: 0
    }
  }
}
layer {
  name: "relu3"
  type: "ReLU"
  bottom: "conv3"
  top: "conv3"
}
layer {
  name: "conv4"
  type: "Convolution"
  bottom: "conv3"
  top: "conv4"
  param {
    lr_mult: 1
    decay_mult: 1
  }
  param {
    lr_mult: 2
    decay_mult: 0
  }
  convolution_param {
    num_output: 384
    pad: 1
    kernel_size: 3
    group: 2
    weight_filler {
      type: "gaussian"
      std: 0.01
    }
    bias_filler {
      type: "constant"
      value: 1
    }
  }
}
layer {
  name: "relu4"
  type: "ReLU"
  bottom: "conv4"
  top: "conv4"
}
layer {
  name: "conv5"
  type: "Convolution"
  bottom: "conv4"
  top: "conv5"
  param {
    lr_mult: 1
    decay_mult: 1
  }
  param {
    lr_mult: 2
    decay_mult: 0
  }
  convolution_param {
    num_output: 256
    pad: 1
    kernel_size: 3
    group: 2
    weight_filler {
      type: "gaussian"
      std: 0.01
    }
    bias_filler {
      type: "constant"
      value: 1
    }
  }
}
layer {
  name: "relu5"
  type: "ReLU"
  bottom: "conv5"
  top: "conv5"
}
layer {
  name: "pool5"
  type: "Pooling"
  bottom: "conv5"
  top: "pool5"
  pooling_param {
    pool: MAX
    kernel_size: 3
    stride: 2
  }
}
layer {
  name: "fc6"
  type: "InnerProduct"
  bottom: "pool5"
  top: "fc6"
  param {
    lr_mult: 1
    decay_mult: 1
  }
  param {
    lr_mult: 2
    decay_mult: 0
  }
  inner_product_param {
    num_output: 4096
    weight_filler {
      type: "gaussian"
      std: 0.005
    }
    bias_filler {
      type: "constant"
      value: 1
    }
  }
}
layer {
  name: "relu6"
  type: "ReLU"
  bottom: "fc6"
  top: "fc6"
}
layer {
  name: "drop6"
  type: "Dropout"
  bottom: "fc6"
  top: "fc6"
  dropout_param {
    dropout_ratio: 0.5
  }
}
layer {
  name: "fc7"
  type: "InnerProduct"
  bottom: "fc6"
  top: "fc7"
  param {
    lr_mult: 1
    decay_mult: 1
  }
  param {
    lr_mult: 2
    decay_mult: 0
  }
  inner_product_param {
    num_output: 4096
    weight_filler {
      type: "gaussian"
      std: 0.005
    }
    bias_filler {
      type: "constant"
      value: 1
    }
  }
}
layer {
  name: "relu7"
  type: "ReLU"
  bottom: "fc7"
  top: "fc7"
}
layer {
  name: "drop7"
  type: "Dropout"
  bottom: "fc7"
  top: "fc7"
  dropout_param {
    dropout_ratio: 0.5
  }
}
layer {
  name: "fc8"
  type: "InnerProduct"
  bottom: "fc7"
  top: "fc8"
  param {
    lr_mult: 1
    decay_mult: 1
  }
  param {
    lr_mult: 2
    decay_mult: 0
  }
  inner_product_param {
    num_output: 2
    weight_filler {
      type: "gaussian"
      std: 0.01
    }
    bias_filler {
      type: "constant"
      value: 0
    }
  }
}
layer {
  name: "accuracy"
  type: "Accuracy"
  bottom: "fc8"
  bottom: "label"
  top: "accuracy"
  include {
    phase: TEST
  }
}
layer {
  name: "loss"
  type: "SoftmaxWithLoss"
  bottom: "fc8"
  bottom: "label"
  top: "loss"
}
I0301 10:39:57.484717  8544 layer_factory.hpp:77] Creating layer data
I0301 10:39:57.484747  8544 db_lmdb.cpp:35] Opened lmdb /home/rbruce/caffeV2/adbloq/databases/validation_lmdb
I0301 10:39:57.484753  8544 net.cpp:84] Creating Layer data
I0301 10:39:57.484756  8544 net.cpp:380] data -> data
I0301 10:39:57.484760  8544 net.cpp:380] data -> label
I0301 10:39:57.484766  8544 data_transformer.cpp:25] Loading mean file from: /home/rbruce/caffeV2/adbloq/databases/mean.binaryproto
I0301 10:39:57.485929  8544 data_layer.cpp:45] output data size: 50,3,227,227
I0301 10:39:57.522588  8544 net.cpp:122] Setting up data
I0301 10:39:57.522604  8544 net.cpp:129] Top shape: 50 3 227 227 (7729350)
I0301 10:39:57.522608  8544 net.cpp:129] Top shape: 50 (50)
I0301 10:39:57.522609  8544 net.cpp:137] Memory required for data: 30917600
I0301 10:39:57.522614  8544 layer_factory.hpp:77] Creating layer label_data_1_split
I0301 10:39:57.522620  8544 net.cpp:84] Creating Layer label_data_1_split
I0301 10:39:57.522622  8544 net.cpp:406] label_data_1_split <- label
I0301 10:39:57.522626  8544 net.cpp:380] label_data_1_split -> label_data_1_split_0
I0301 10:39:57.522631  8544 net.cpp:380] label_data_1_split -> label_data_1_split_1
I0301 10:39:57.522678  8544 net.cpp:122] Setting up label_data_1_split
I0301 10:39:57.522682  8544 net.cpp:129] Top shape: 50 (50)
I0301 10:39:57.522686  8544 net.cpp:129] Top shape: 50 (50)
I0301 10:39:57.522686  8544 net.cpp:137] Memory required for data: 30918000
I0301 10:39:57.522688  8544 layer_factory.hpp:77] Creating layer conv1
I0301 10:39:57.522696  8544 net.cpp:84] Creating Layer conv1
I0301 10:39:57.522697  8544 net.cpp:406] conv1 <- data
I0301 10:39:57.522701  8544 net.cpp:380] conv1 -> conv1
I0301 10:39:57.525838  8544 net.cpp:122] Setting up conv1
I0301 10:39:57.525847  8544 net.cpp:129] Top shape: 50 96 55 55 (14520000)
I0301 10:39:57.525849  8544 net.cpp:137] Memory required for data: 88998000
I0301 10:39:57.525856  8544 layer_factory.hpp:77] Creating layer relu1
I0301 10:39:57.525861  8544 net.cpp:84] Creating Layer relu1
I0301 10:39:57.525862  8544 net.cpp:406] relu1 <- conv1
I0301 10:39:57.525864  8544 net.cpp:367] relu1 -> conv1 (in-place)
I0301 10:39:57.525868  8544 net.cpp:122] Setting up relu1
I0301 10:39:57.525871  8544 net.cpp:129] Top shape: 50 96 55 55 (14520000)
I0301 10:39:57.525872  8544 net.cpp:137] Memory required for data: 147078000
I0301 10:39:57.525874  8544 layer_factory.hpp:77] Creating layer pool1
I0301 10:39:57.525878  8544 net.cpp:84] Creating Layer pool1
I0301 10:39:57.525879  8544 net.cpp:406] pool1 <- conv1
I0301 10:39:57.525882  8544 net.cpp:380] pool1 -> pool1
I0301 10:39:57.525902  8544 net.cpp:122] Setting up pool1
I0301 10:39:57.525905  8544 net.cpp:129] Top shape: 50 96 27 27 (3499200)
I0301 10:39:57.525907  8544 net.cpp:137] Memory required for data: 161074800
I0301 10:39:57.525908  8544 layer_factory.hpp:77] Creating layer norm1
I0301 10:39:57.525913  8544 net.cpp:84] Creating Layer norm1
I0301 10:39:57.525914  8544 net.cpp:406] norm1 <- pool1
I0301 10:39:57.525916  8544 net.cpp:380] norm1 -> norm1
I0301 10:39:57.525933  8544 net.cpp:122] Setting up norm1
I0301 10:39:57.525936  8544 net.cpp:129] Top shape: 50 96 27 27 (3499200)
I0301 10:39:57.525938  8544 net.cpp:137] Memory required for data: 175071600
I0301 10:39:57.525939  8544 layer_factory.hpp:77] Creating layer conv2
I0301 10:39:57.525943  8544 net.cpp:84] Creating Layer conv2
I0301 10:39:57.525945  8544 net.cpp:406] conv2 <- norm1
I0301 10:39:57.525949  8544 net.cpp:380] conv2 -> conv2
I0301 10:39:57.532059  8544 net.cpp:122] Setting up conv2
I0301 10:39:57.532065  8544 net.cpp:129] Top shape: 50 256 27 27 (9331200)
I0301 10:39:57.532075  8544 net.cpp:137] Memory required for data: 212396400
I0301 10:39:57.532081  8544 layer_factory.hpp:77] Creating layer relu2
I0301 10:39:57.532084  8544 net.cpp:84] Creating Layer relu2
I0301 10:39:57.532088  8544 net.cpp:406] relu2 <- conv2
I0301 10:39:57.532089  8544 net.cpp:367] relu2 -> conv2 (in-place)
I0301 10:39:57.532094  8544 net.cpp:122] Setting up relu2
I0301 10:39:57.532096  8544 net.cpp:129] Top shape: 50 256 27 27 (9331200)
I0301 10:39:57.532097  8544 net.cpp:137] Memory required for data: 249721200
I0301 10:39:57.532099  8544 layer_factory.hpp:77] Creating layer pool2
I0301 10:39:57.532102  8544 net.cpp:84] Creating Layer pool2
I0301 10:39:57.532104  8544 net.cpp:406] pool2 <- conv2
I0301 10:39:57.532106  8544 net.cpp:380] pool2 -> pool2
I0301 10:39:57.532126  8544 net.cpp:122] Setting up pool2
I0301 10:39:57.532130  8544 net.cpp:129] Top shape: 50 256 13 13 (2163200)
I0301 10:39:57.532132  8544 net.cpp:137] Memory required for data: 258374000
I0301 10:39:57.532133  8544 layer_factory.hpp:77] Creating layer norm2
I0301 10:39:57.532136  8544 net.cpp:84] Creating Layer norm2
I0301 10:39:57.532138  8544 net.cpp:406] norm2 <- pool2
I0301 10:39:57.532140  8544 net.cpp:380] norm2 -> norm2
I0301 10:39:57.532156  8544 net.cpp:122] Setting up norm2
I0301 10:39:57.532160  8544 net.cpp:129] Top shape: 50 256 13 13 (2163200)
I0301 10:39:57.532161  8544 net.cpp:137] Memory required for data: 267026800
I0301 10:39:57.532163  8544 layer_factory.hpp:77] Creating layer conv3
I0301 10:39:57.532167  8544 net.cpp:84] Creating Layer conv3
I0301 10:39:57.532169  8544 net.cpp:406] conv3 <- norm2
I0301 10:39:57.532172  8544 net.cpp:380] conv3 -> conv3
I0301 10:39:57.550211  8544 net.cpp:122] Setting up conv3
I0301 10:39:57.550225  8544 net.cpp:129] Top shape: 50 384 13 13 (3244800)
I0301 10:39:57.550227  8544 net.cpp:137] Memory required for data: 280006000
I0301 10:39:57.550235  8544 layer_factory.hpp:77] Creating layer relu3
I0301 10:39:57.550240  8544 net.cpp:84] Creating Layer relu3
I0301 10:39:57.550243  8544 net.cpp:406] relu3 <- conv3
I0301 10:39:57.550246  8544 net.cpp:367] relu3 -> conv3 (in-place)
I0301 10:39:57.550251  8544 net.cpp:122] Setting up relu3
I0301 10:39:57.550253  8544 net.cpp:129] Top shape: 50 384 13 13 (3244800)
I0301 10:39:57.550256  8544 net.cpp:137] Memory required for data: 292985200
I0301 10:39:57.550256  8544 layer_factory.hpp:77] Creating layer conv4
I0301 10:39:57.550263  8544 net.cpp:84] Creating Layer conv4
I0301 10:39:57.550264  8544 net.cpp:406] conv4 <- conv3
I0301 10:39:57.550267  8544 net.cpp:380] conv4 -> conv4
I0301 10:39:57.561432  8551 data_layer.cpp:73] Restarting data prefetching from start.
I0301 10:39:57.564581  8544 net.cpp:122] Setting up conv4
I0301 10:39:57.564590  8544 net.cpp:129] Top shape: 50 384 13 13 (3244800)
I0301 10:39:57.564591  8544 net.cpp:137] Memory required for data: 305964400
I0301 10:39:57.564595  8544 layer_factory.hpp:77] Creating layer relu4
I0301 10:39:57.564600  8544 net.cpp:84] Creating Layer relu4
I0301 10:39:57.564602  8544 net.cpp:406] relu4 <- conv4
I0301 10:39:57.564605  8544 net.cpp:367] relu4 -> conv4 (in-place)
I0301 10:39:57.564610  8544 net.cpp:122] Setting up relu4
I0301 10:39:57.564611  8544 net.cpp:129] Top shape: 50 384 13 13 (3244800)
I0301 10:39:57.564613  8544 net.cpp:137] Memory required for data: 318943600
I0301 10:39:57.564615  8544 layer_factory.hpp:77] Creating layer conv5
I0301 10:39:57.564620  8544 net.cpp:84] Creating Layer conv5
I0301 10:39:57.564621  8544 net.cpp:406] conv5 <- conv4
I0301 10:39:57.564625  8544 net.cpp:380] conv5 -> conv5
I0301 10:39:57.573866  8544 net.cpp:122] Setting up conv5
I0301 10:39:57.573878  8544 net.cpp:129] Top shape: 50 256 13 13 (2163200)
I0301 10:39:57.573879  8544 net.cpp:137] Memory required for data: 327596400
I0301 10:39:57.573886  8544 layer_factory.hpp:77] Creating layer relu5
I0301 10:39:57.573890  8544 net.cpp:84] Creating Layer relu5
I0301 10:39:57.573894  8544 net.cpp:406] relu5 <- conv5
I0301 10:39:57.573896  8544 net.cpp:367] relu5 -> conv5 (in-place)
I0301 10:39:57.573909  8544 net.cpp:122] Setting up relu5
I0301 10:39:57.573912  8544 net.cpp:129] Top shape: 50 256 13 13 (2163200)
I0301 10:39:57.573914  8544 net.cpp:137] Memory required for data: 336249200
I0301 10:39:57.573915  8544 layer_factory.hpp:77] Creating layer pool5
I0301 10:39:57.573920  8544 net.cpp:84] Creating Layer pool5
I0301 10:39:57.573923  8544 net.cpp:406] pool5 <- conv5
I0301 10:39:57.573926  8544 net.cpp:380] pool5 -> pool5
I0301 10:39:57.573951  8544 net.cpp:122] Setting up pool5
I0301 10:39:57.573953  8544 net.cpp:129] Top shape: 50 256 6 6 (460800)
I0301 10:39:57.573956  8544 net.cpp:137] Memory required for data: 338092400
I0301 10:39:57.573957  8544 layer_factory.hpp:77] Creating layer fc6
I0301 10:39:57.573961  8544 net.cpp:84] Creating Layer fc6
I0301 10:39:57.573962  8544 net.cpp:406] fc6 <- pool5
I0301 10:39:57.573964  8544 net.cpp:380] fc6 -> fc6
I0301 10:39:57.615131  8551 data_layer.cpp:73] Restarting data prefetching from start.
I0301 10:39:57.650390  8551 data_layer.cpp:73] Restarting data prefetching from start.
I0301 10:39:58.337517  8544 net.cpp:122] Setting up fc6
I0301 10:39:58.337532  8544 net.cpp:129] Top shape: 50 4096 (204800)
I0301 10:39:58.337534  8544 net.cpp:137] Memory required for data: 338911600
I0301 10:39:58.337540  8544 layer_factory.hpp:77] Creating layer relu6
I0301 10:39:58.337546  8544 net.cpp:84] Creating Layer relu6
I0301 10:39:58.337549  8544 net.cpp:406] relu6 <- fc6
I0301 10:39:58.337553  8544 net.cpp:367] relu6 -> fc6 (in-place)
I0301 10:39:58.337558  8544 net.cpp:122] Setting up relu6
I0301 10:39:58.337559  8544 net.cpp:129] Top shape: 50 4096 (204800)
I0301 10:39:58.337561  8544 net.cpp:137] Memory required for data: 339730800
I0301 10:39:58.337563  8544 layer_factory.hpp:77] Creating layer drop6
I0301 10:39:58.337566  8544 net.cpp:84] Creating Layer drop6
I0301 10:39:58.337568  8544 net.cpp:406] drop6 <- fc6
I0301 10:39:58.337570  8544 net.cpp:367] drop6 -> fc6 (in-place)
I0301 10:39:58.337586  8544 net.cpp:122] Setting up drop6
I0301 10:39:58.337590  8544 net.cpp:129] Top shape: 50 4096 (204800)
I0301 10:39:58.337591  8544 net.cpp:137] Memory required for data: 340550000
I0301 10:39:58.337594  8544 layer_factory.hpp:77] Creating layer fc7
I0301 10:39:58.337597  8544 net.cpp:84] Creating Layer fc7
I0301 10:39:58.337599  8544 net.cpp:406] fc7 <- fc6
I0301 10:39:58.337601  8544 net.cpp:380] fc7 -> fc7
I0301 10:39:58.745894  8544 net.cpp:122] Setting up fc7
I0301 10:39:58.745913  8544 net.cpp:129] Top shape: 50 4096 (204800)
I0301 10:39:58.745915  8544 net.cpp:137] Memory required for data: 341369200
I0301 10:39:58.745921  8544 layer_factory.hpp:77] Creating layer relu7
I0301 10:39:58.745929  8544 net.cpp:84] Creating Layer relu7
I0301 10:39:58.745932  8544 net.cpp:406] relu7 <- fc7
I0301 10:39:58.745936  8544 net.cpp:367] relu7 -> fc7 (in-place)
I0301 10:39:58.745942  8544 net.cpp:122] Setting up relu7
I0301 10:39:58.745945  8544 net.cpp:129] Top shape: 50 4096 (204800)
I0301 10:39:58.745947  8544 net.cpp:137] Memory required for data: 342188400
I0301 10:39:58.745949  8544 layer_factory.hpp:77] Creating layer drop7
I0301 10:39:58.745954  8544 net.cpp:84] Creating Layer drop7
I0301 10:39:58.745956  8544 net.cpp:406] drop7 <- fc7
I0301 10:39:58.745959  8544 net.cpp:367] drop7 -> fc7 (in-place)
I0301 10:39:58.745980  8544 net.cpp:122] Setting up drop7
I0301 10:39:58.745983  8544 net.cpp:129] Top shape: 50 4096 (204800)
I0301 10:39:58.745985  8544 net.cpp:137] Memory required for data: 343007600
I0301 10:39:58.745987  8544 layer_factory.hpp:77] Creating layer fc8
I0301 10:39:58.745992  8544 net.cpp:84] Creating Layer fc8
I0301 10:39:58.745995  8544 net.cpp:406] fc8 <- fc7
I0301 10:39:58.745997  8544 net.cpp:380] fc8 -> fc8
I0301 10:39:58.746256  8544 net.cpp:122] Setting up fc8
I0301 10:39:58.746261  8544 net.cpp:129] Top shape: 50 2 (100)
I0301 10:39:58.746263  8544 net.cpp:137] Memory required for data: 343008000
I0301 10:39:58.746268  8544 layer_factory.hpp:77] Creating layer fc8_fc8_0_split
I0301 10:39:58.746270  8544 net.cpp:84] Creating Layer fc8_fc8_0_split
I0301 10:39:58.746284  8544 net.cpp:406] fc8_fc8_0_split <- fc8
I0301 10:39:58.746287  8544 net.cpp:380] fc8_fc8_0_split -> fc8_fc8_0_split_0
I0301 10:39:58.746291  8544 net.cpp:380] fc8_fc8_0_split -> fc8_fc8_0_split_1
I0301 10:39:58.746312  8544 net.cpp:122] Setting up fc8_fc8_0_split
I0301 10:39:58.746316  8544 net.cpp:129] Top shape: 50 2 (100)
I0301 10:39:58.746320  8544 net.cpp:129] Top shape: 50 2 (100)
I0301 10:39:58.746321  8544 net.cpp:137] Memory required for data: 343008800
I0301 10:39:58.746323  8544 layer_factory.hpp:77] Creating layer accuracy
I0301 10:39:58.746327  8544 net.cpp:84] Creating Layer accuracy
I0301 10:39:58.746330  8544 net.cpp:406] accuracy <- fc8_fc8_0_split_0
I0301 10:39:58.746331  8544 net.cpp:406] accuracy <- label_data_1_split_0
I0301 10:39:58.746335  8544 net.cpp:380] accuracy -> accuracy
…
