…
I0324 14:01:49.990118  6661 net.cpp:294] The NetState phase (0) differed from the phase (1) specified by a rule in layer accuracy
I0324 14:01:49.990212  6661 net.cpp:51] Initializing net from parameters: 
name: "CaffeNet"
state {
  phase: TRAIN
  level: 0
  stage: ""
}
layer {
  name: "data"
  type: "Data"
  top: "data"
  top: "label"
  include {
    phase: TRAIN
  }
  transform_param {
    mirror: true
    crop_size: 224
    mean_file: "/home/rbruce/caffeV2/adbloq/databases/mean.binaryproto"
  }
  data_param {
    source: "/home/rbruce/caffeV2/adbloq/databases/train_lmdb"
    batch_size: 256
    backend: LMDB
  }
}
layer {
  name: "conv1"
  type: "Convolution"
  bottom: "data"
  top: "conv1"
  param {
    lr_mult: 1
    decay_mult: 1
  }
  param {
    lr_mult: 2
    decay_mult: 0
  }
  convolution_param {
    num_output: 96
    kernel_size: 11
    stride: 4
    weight_filler {
      type: "gaussian"
      std: 0.01
    }
    bias_filler {
      type: "constant"
      value: 0
    }
  }
}
layer {
  name: "relu1"
  type: "ReLU"
  bottom: "conv1"
  top: "conv1"
}
layer {
  name: "pool1"
  type: "Pooling"
  bottom: "conv1"
  top: "pool1"
  pooling_param {
    pool: MAX
    kernel_size: 3
    stride: 2
  }
}
layer {
  name: "norm1"
  type: "LRN"
  bottom: "pool1"
  top: "norm1"
  lrn_param {
    local_size: 5
    alpha: 0.0001
    beta: 0.75
  }
}
layer {
  name: "conv2"
  type: "Convolution"
  bottom: "norm1"
  top: "conv2"
  param {
    lr_mult: 1
    decay_mult: 1
  }
  param {
    lr_mult: 2
    decay_mult: 0
  }
  convolution_param {
    num_output: 256
    pad: 2
    kernel_size: 5
    group: 2
    weight_filler {
      type: "gaussian"
      std: 0.01
    }
    bias_filler {
      type: "constant"
      value: 1
    }
  }
}
layer {
  name: "relu2"
  type: "ReLU"
  bottom: "conv2"
  top: "conv2"
}
layer {
  name: "pool2"
  type: "Pooling"
  bottom: "conv2"
  top: "pool2"
  pooling_param {
    pool: MAX
    kernel_size: 3
    stride: 2
  }
}
layer {
  name: "norm2"
  type: "LRN"
  bottom: "pool2"
  top: "norm2"
  lrn_param {
    local_size: 5
    alpha: 0.0001
    beta: 0.75
  }
}
layer {
  name: "conv3"
  type: "Convolution"
  bottom: "norm2"
  top: "conv3"
  param {
    lr_mult: 1
    decay_mult: 1
  }
  param {
    lr_mult: 2
    decay_mult: 0
  }
  convolution_param {
    num_output: 384
    pad: 1
    kernel_size: 3
    weight_filler {
      type: "gaussian"
      std: 0.01
    }
    bias_filler {
      type: "constant"
      value: 0
    }
  }
}
layer {
  name: "relu3"
  type: "ReLU"
  bottom: "conv3"
  top: "conv3"
}
layer {
  name: "conv4"
  type: "Convolution"
  bottom: "conv3"
  top: "conv4"
  param {
    lr_mult: 1
    decay_mult: 1
  }
  param {
    lr_mult: 2
    decay_mult: 0
  }
  convolution_param {
    num_output: 384
    pad: 1
    kernel_size: 3
    group: 2
    weight_filler {
      type: "gaussian"
      std: 0.01
    }
    bias_filler {
      type: "constant"
      value: 1
    }
  }
}
layer {
  name: "relu4"
  type: "ReLU"
  bottom: "conv4"
  top: "conv4"
}
layer {
  name: "conv5"
  type: "Convolution"
  bottom: "conv4"
  top: "conv5"
  param {
    lr_mult: 1
    decay_mult: 1
  }
  param {
    lr_mult: 2
    decay_mult: 0
  }
  convolution_param {
    num_output: 256
    pad: 1
    kernel_size: 3
    group: 2
    weight_filler {
      type: "gaussian"
      std: 0.01
    }
    bias_filler {
      type: "constant"
      value: 1
    }
  }
}
layer {
  name: "relu5"
  type: "ReLU"
  bottom: "conv5"
  top: "conv5"
}
layer {
  name: "pool5"
  type: "Pooling"
  bottom: "conv5"
  top: "pool5"
  pooling_param {
    pool: MAX
    kernel_size: 3
    stride: 2
  }
}
layer {
  name: "fc6"
  type: "InnerProduct"
  bottom: "pool5"
  top: "fc6"
  param {
    lr_mult: 1
    decay_mult: 1
  }
  param {
    lr_mult: 2
    decay_mult: 0
  }
  inner_product_param {
    num_output: 4096
    weight_filler {
      type: "gaussian"
      std: 0.005
    }
    bias_filler {
      type: "constant"
      value: 1
    }
  }
}
layer {
  name: "relu6"
  type: "ReLU"
  bottom: "fc6"
  top: "fc6"
}
layer {
  name: "drop6"
  type: "Dropout"
  bottom: "fc6"
  top: "fc6"
  dropout_param {
    dropout_ratio: 0.5
  }
}
layer {
  name: "fc7"
  type: "InnerProduct"
  bottom: "fc6"
  top: "fc7"
  param {
    lr_mult: 1
    decay_mult: 1
  }
  param {
    lr_mult: 2
    decay_mult: 0
  }
  inner_product_param {
    num_output: 4096
    weight_filler {
      type: "gaussian"
      std: 0.005
    }
    bias_filler {
      type: "constant"
      value: 1
    }
  }
}
layer {
  name: "relu7"
  type: "ReLU"
  bottom: "fc7"
  top: "fc7"
}
layer {
  name: "drop7"
  type: "Dropout"
  bottom: "fc7"
  top: "fc7"
  dropout_param {
    dropout_ratio: 0.5
  }
}
layer {
  name: "fc8"
  type: "InnerProduct"
  bottom: "fc7"
  top: "fc8"
  param {
    lr_mult: 1
    decay_mult: 1
  }
  param {
    lr_mult: 2
    decay_mult: 0
  }
  inner_product_param {
    num_output: 256
    weight_filler {
      type: "gaussian"
      std: 0.01
    }
    bias_filler {
      type: "constant"
      value: 0
    }
  }
}
layer {
  name: "loss"
  type: "SoftmaxWithLoss"
  bottom: "fc8"
  bottom: "label"
  top: "loss"
}
I0324 14:01:49.990280  6661 layer_factory.hpp:77] Creating layer data
I0324 14:01:49.990345  6661 db_lmdb.cpp:35] Opened lmdb /home/rbruce/caffeV2/adbloq/databases/train_lmdb
I0324 14:01:49.990360  6661 net.cpp:84] Creating Layer data
I0324 14:01:49.990363  6661 net.cpp:380] data -> data
I0324 14:01:49.990378  6661 net.cpp:380] data -> label
I0324 14:01:49.990388  6661 data_transformer.cpp:25] Loading mean file from: /home/rbruce/caffeV2/adbloq/databases/mean.binaryproto
I0324 14:01:49.992456  6661 data_layer.cpp:45] output data size: 256,3,224,224
I0324 14:01:50.166208  6661 net.cpp:122] Setting up data
I0324 14:01:50.166224  6661 net.cpp:129] Top shape: 256 3 224 224 (38535168)
I0324 14:01:50.166229  6661 net.cpp:129] Top shape: 256 (256)
I0324 14:01:50.166230  6661 net.cpp:137] Memory required for data: 154141696
I0324 14:01:50.166236  6661 layer_factory.hpp:77] Creating layer conv1
I0324 14:01:50.166251  6661 net.cpp:84] Creating Layer conv1
I0324 14:01:50.166254  6661 net.cpp:406] conv1 <- data
I0324 14:01:50.166262  6661 net.cpp:380] conv1 -> conv1
I0324 14:01:50.179384  6661 net.cpp:122] Setting up conv1
I0324 14:01:50.179399  6661 net.cpp:129] Top shape: 256 96 54 54 (71663616)
I0324 14:01:50.179401  6661 net.cpp:137] Memory required for data: 440796160
I0324 14:01:50.179412  6661 layer_factory.hpp:77] Creating layer relu1
I0324 14:01:50.179419  6661 net.cpp:84] Creating Layer relu1
I0324 14:01:50.179422  6661 net.cpp:406] relu1 <- conv1
I0324 14:01:50.179425  6661 net.cpp:367] relu1 -> conv1 (in-place)
I0324 14:01:50.179432  6661 net.cpp:122] Setting up relu1
I0324 14:01:50.179435  6661 net.cpp:129] Top shape: 256 96 54 54 (71663616)
I0324 14:01:50.179436  6661 net.cpp:137] Memory required for data: 727450624
I0324 14:01:50.179438  6661 layer_factory.hpp:77] Creating layer pool1
I0324 14:01:50.179442  6661 net.cpp:84] Creating Layer pool1
I0324 14:01:50.179443  6661 net.cpp:406] pool1 <- conv1
I0324 14:01:50.179446  6661 net.cpp:380] pool1 -> pool1
I0324 14:01:50.179484  6661 net.cpp:122] Setting up pool1
I0324 14:01:50.179488  6661 net.cpp:129] Top shape: 256 96 27 27 (17915904)
I0324 14:01:50.179491  6661 net.cpp:137] Memory required for data: 799114240
I0324 14:01:50.179491  6661 layer_factory.hpp:77] Creating layer norm1
I0324 14:01:50.179507  6661 net.cpp:84] Creating Layer norm1
I0324 14:01:50.179508  6661 net.cpp:406] norm1 <- pool1
I0324 14:01:50.179512  6661 net.cpp:380] norm1 -> norm1
I0324 14:01:50.179533  6661 net.cpp:122] Setting up norm1
I0324 14:01:50.179536  6661 net.cpp:129] Top shape: 256 96 27 27 (17915904)
I0324 14:01:50.179538  6661 net.cpp:137] Memory required for data: 870777856
I0324 14:01:50.179540  6661 layer_factory.hpp:77] Creating layer conv2
I0324 14:01:50.179545  6661 net.cpp:84] Creating Layer conv2
I0324 14:01:50.179548  6661 net.cpp:406] conv2 <- norm1
I0324 14:01:50.179550  6661 net.cpp:380] conv2 -> conv2
I0324 14:01:50.186183  6661 net.cpp:122] Setting up conv2
I0324 14:01:50.186190  6661 net.cpp:129] Top shape: 256 256 27 27 (47775744)
I0324 14:01:50.186192  6661 net.cpp:137] Memory required for data: 1061880832
I0324 14:01:50.186198  6661 layer_factory.hpp:77] Creating layer relu2
I0324 14:01:50.186203  6661 net.cpp:84] Creating Layer relu2
I0324 14:01:50.186204  6661 net.cpp:406] relu2 <- conv2
I0324 14:01:50.186208  6661 net.cpp:367] relu2 -> conv2 (in-place)
I0324 14:01:50.186210  6661 net.cpp:122] Setting up relu2
I0324 14:01:50.186213  6661 net.cpp:129] Top shape: 256 256 27 27 (47775744)
I0324 14:01:50.186214  6661 net.cpp:137] Memory required for data: 1252983808
I0324 14:01:50.186216  6661 layer_factory.hpp:77] Creating layer pool2
I0324 14:01:50.186218  6661 net.cpp:84] Creating Layer pool2
I0324 14:01:50.186220  6661 net.cpp:406] pool2 <- conv2
I0324 14:01:50.186223  6661 net.cpp:380] pool2 -> pool2
I0324 14:01:50.186244  6661 net.cpp:122] Setting up pool2
I0324 14:01:50.186249  6661 net.cpp:129] Top shape: 256 256 13 13 (11075584)
I0324 14:01:50.186249  6661 net.cpp:137] Memory required for data: 1297286144
I0324 14:01:50.186251  6661 layer_factory.hpp:77] Creating layer norm2
I0324 14:01:50.186254  6661 net.cpp:84] Creating Layer norm2
I0324 14:01:50.186256  6661 net.cpp:406] norm2 <- pool2
I0324 14:01:50.186259  6661 net.cpp:380] norm2 -> norm2
I0324 14:01:50.186275  6661 net.cpp:122] Setting up norm2
I0324 14:01:50.186277  6661 net.cpp:129] Top shape: 256 256 13 13 (11075584)
I0324 14:01:50.186278  6661 net.cpp:137] Memory required for data: 1341588480
I0324 14:01:50.186280  6661 layer_factory.hpp:77] Creating layer conv3
I0324 14:01:50.186285  6661 net.cpp:84] Creating Layer conv3
I0324 14:01:50.186287  6661 net.cpp:406] conv3 <- norm2
I0324 14:01:50.186290  6661 net.cpp:380] conv3 -> conv3
I0324 14:01:50.204388  6661 net.cpp:122] Setting up conv3
I0324 14:01:50.204402  6661 net.cpp:129] Top shape: 256 384 13 13 (16613376)
I0324 14:01:50.204404  6661 net.cpp:137] Memory required for data: 1408041984
I0324 14:01:50.204411  6661 layer_factory.hpp:77] Creating layer relu3
I0324 14:01:50.204418  6661 net.cpp:84] Creating Layer relu3
I0324 14:01:50.204421  6661 net.cpp:406] relu3 <- conv3
I0324 14:01:50.204423  6661 net.cpp:367] relu3 -> conv3 (in-place)
I0324 14:01:50.204428  6661 net.cpp:122] Setting up relu3
I0324 14:01:50.204430  6661 net.cpp:129] Top shape: 256 384 13 13 (16613376)
I0324 14:01:50.204432  6661 net.cpp:137] Memory required for data: 1474495488
I0324 14:01:50.204433  6661 layer_factory.hpp:77] Creating layer conv4
I0324 14:01:50.204439  6661 net.cpp:84] Creating Layer conv4
I0324 14:01:50.204442  6661 net.cpp:406] conv4 <- conv3
I0324 14:01:50.204443  6661 net.cpp:380] conv4 -> conv4
I0324 14:01:50.218103  6661 net.cpp:122] Setting up conv4
I0324 14:01:50.218111  6661 net.cpp:129] Top shape: 256 384 13 13 (16613376)
I0324 14:01:50.218113  6661 net.cpp:137] Memory required for data: 1540948992
I0324 14:01:50.218117  6661 layer_factory.hpp:77] Creating layer relu4
I0324 14:01:50.218122  6661 net.cpp:84] Creating Layer relu4
I0324 14:01:50.218123  6661 net.cpp:406] relu4 <- conv4
I0324 14:01:50.218127  6661 net.cpp:367] relu4 -> conv4 (in-place)
I0324 14:01:50.218129  6661 net.cpp:122] Setting up relu4
I0324 14:01:50.218132  6661 net.cpp:129] Top shape: 256 384 13 13 (16613376)
I0324 14:01:50.218133  6661 net.cpp:137] Memory required for data: 1607402496
I0324 14:01:50.218135  6661 layer_factory.hpp:77] Creating layer conv5
I0324 14:01:50.218150  6661 net.cpp:84] Creating Layer conv5
I0324 14:01:50.218152  6661 net.cpp:406] conv5 <- conv4
I0324 14:01:50.218155  6661 net.cpp:380] conv5 -> conv5
I0324 14:01:50.227452  6661 net.cpp:122] Setting up conv5
I0324 14:01:50.227466  6661 net.cpp:129] Top shape: 256 256 13 13 (11075584)
I0324 14:01:50.227468  6661 net.cpp:137] Memory required for data: 1651704832
I0324 14:01:50.227476  6661 layer_factory.hpp:77] Creating layer relu5
I0324 14:01:50.227484  6661 net.cpp:84] Creating Layer relu5
I0324 14:01:50.227488  6661 net.cpp:406] relu5 <- conv5
I0324 14:01:50.227490  6661 net.cpp:367] relu5 -> conv5 (in-place)
I0324 14:01:50.227495  6661 net.cpp:122] Setting up relu5
I0324 14:01:50.227499  6661 net.cpp:129] Top shape: 256 256 13 13 (11075584)
I0324 14:01:50.227502  6661 net.cpp:137] Memory required for data: 1696007168
I0324 14:01:50.227504  6661 layer_factory.hpp:77] Creating layer pool5
I0324 14:01:50.227509  6661 net.cpp:84] Creating Layer pool5
I0324 14:01:50.227512  6661 net.cpp:406] pool5 <- conv5
I0324 14:01:50.227516  6661 net.cpp:380] pool5 -> pool5
I0324 14:01:50.227545  6661 net.cpp:122] Setting up pool5
I0324 14:01:50.227550  6661 net.cpp:129] Top shape: 256 256 6 6 (2359296)
I0324 14:01:50.227553  6661 net.cpp:137] Memory required for data: 1705444352
I0324 14:01:50.227555  6661 layer_factory.hpp:77] Creating layer fc6
I0324 14:01:50.227562  6661 net.cpp:84] Creating Layer fc6
I0324 14:01:50.227566  6661 net.cpp:406] fc6 <- pool5
I0324 14:01:50.227571  6661 net.cpp:380] fc6 -> fc6
I0324 14:01:50.990891  6661 net.cpp:122] Setting up fc6
I0324 14:01:50.990908  6661 net.cpp:129] Top shape: 256 4096 (1048576)
I0324 14:01:50.990911  6661 net.cpp:137] Memory required for data: 1709638656
I0324 14:01:50.990919  6661 layer_factory.hpp:77] Creating layer relu6
I0324 14:01:50.990927  6661 net.cpp:84] Creating Layer relu6
I0324 14:01:50.990931  6661 net.cpp:406] relu6 <- fc6
I0324 14:01:50.990938  6661 net.cpp:367] relu6 -> fc6 (in-place)
I0324 14:01:50.990947  6661 net.cpp:122] Setting up relu6
I0324 14:01:50.990952  6661 net.cpp:129] Top shape: 256 4096 (1048576)
I0324 14:01:50.990954  6661 net.cpp:137] Memory required for data: 1713832960
I0324 14:01:50.990957  6661 layer_factory.hpp:77] Creating layer drop6
I0324 14:01:50.990963  6661 net.cpp:84] Creating Layer drop6
I0324 14:01:50.990967  6661 net.cpp:406] drop6 <- fc6
I0324 14:01:50.990972  6661 net.cpp:367] drop6 -> fc6 (in-place)
I0324 14:01:50.990989  6661 net.cpp:122] Setting up drop6
I0324 14:01:50.990994  6661 net.cpp:129] Top shape: 256 4096 (1048576)
I0324 14:01:50.990998  6661 net.cpp:137] Memory required for data: 1718027264
I0324 14:01:50.991000  6661 layer_factory.hpp:77] Creating layer fc7
I0324 14:01:50.991006  6661 net.cpp:84] Creating Layer fc7
I0324 14:01:50.991010  6661 net.cpp:406] fc7 <- fc6
I0324 14:01:50.991014  6661 net.cpp:380] fc7 -> fc7
I0324 14:01:51.331619  6661 net.cpp:122] Setting up fc7
I0324 14:01:51.331636  6661 net.cpp:129] Top shape: 256 4096 (1048576)
I0324 14:01:51.331640  6661 net.cpp:137] Memory required for data: 1722221568
I0324 14:01:51.331646  6661 layer_factory.hpp:77] Creating layer relu7
I0324 14:01:51.331655  6661 net.cpp:84] Creating Layer relu7
I0324 14:01:51.331660  6661 net.cpp:406] relu7 <- fc7
I0324 14:01:51.331667  6661 net.cpp:367] relu7 -> fc7 (in-place)
I0324 14:01:51.331676  6661 net.cpp:122] Setting up relu7
I0324 14:01:51.331681  6661 net.cpp:129] Top shape: 256 4096 (1048576)
I0324 14:01:51.331683  6661 net.cpp:137] Memory required for data: 1726415872
I0324 14:01:51.331686  6661 layer_factory.hpp:77] Creating layer drop7
I0324 14:01:51.331693  6661 net.cpp:84] Creating Layer drop7
I0324 14:01:51.331696  6661 net.cpp:406] drop7 <- fc7
I0324 14:01:51.331701  6661 net.cpp:367] drop7 -> fc7 (in-place)
I0324 14:01:51.331717  6661 net.cpp:122] Setting up drop7
I0324 14:01:51.331722  6661 net.cpp:129] Top shape: 256 4096 (1048576)
I0324 14:01:51.331725  6661 net.cpp:137] Memory required for data: 1730610176
I0324 14:01:51.331728  6661 layer_factory.hpp:77] Creating layer fc8
I0324 14:01:51.331743  6661 net.cpp:84] Creating Layer fc8
I0324 14:01:51.331746  6661 net.cpp:406] fc8 <- fc7
I0324 14:01:51.331751  6661 net.cpp:380] fc8 -> fc8
I0324 14:01:51.353168  6661 net.cpp:122] Setting up fc8
I0324 14:01:51.353185  6661 net.cpp:129] Top shape: 256 256 (65536)
I0324 14:01:51.353189  6661 net.cpp:137] Memory required for data: 1730872320
I0324 14:01:51.353198  6661 layer_factory.hpp:77] Creating layer loss
I0324 14:01:51.353205  6661 net.cpp:84] Creating Layer loss
I0324 14:01:51.353210  6661 net.cpp:406] loss <- fc8
I0324 14:01:51.353215  6661 net.cpp:406] loss <- label
I0324 14:01:51.353221  6661 net.cpp:380] loss -> loss
I0324 14:01:51.353235  6661 layer_factory.hpp:77] Creating layer loss
…
I0324 14:01:51.353839  6661 net.cpp:294] The NetState phase (1) differed from the phase (0) specified by a rule in layer data
I0324 14:01:51.353943  6661 net.cpp:51] Initializing net from parameters: 
name: "CaffeNet"
state {
  phase: TEST
}
layer {
  name: "data"
  type: "Data"
  top: "data"
  top: "label"
  include {
    phase: TEST
  }
  transform_param {
    mirror: false
    crop_size: 224
    mean_file: "/home/rbruce/caffeV2/adbloq/databases/mean.binaryproto"
  }
  data_param {
    source: "/home/rbruce/caffeV2/adbloq/databases/validation_lmdb"
    batch_size: 50
    backend: LMDB
  }
}
layer {
  name: "conv1"
  type: "Convolution"
  bottom: "data"
  top: "conv1"
  param {
    lr_mult: 1
    decay_mult: 1
  }
  param {
    lr_mult: 2
    decay_mult: 0
  }
  convolution_param {
    num_output: 96
    kernel_size: 11
    stride: 4
    weight_filler {
      type: "gaussian"
      std: 0.01
    }
    bias_filler {
      type: "constant"
      value: 0
    }
  }
}
layer {
  name: "relu1"
  type: "ReLU"
  bottom: "conv1"
  top: "conv1"
}
layer {
  name: "pool1"
  type: "Pooling"
  bottom: "conv1"
  top: "pool1"
  pooling_param {
    pool: MAX
    kernel_size: 3
    stride: 2
  }
}
layer {
  name: "norm1"
  type: "LRN"
  bottom: "pool1"
  top: "norm1"
  lrn_param {
    local_size: 5
    alpha: 0.0001
    beta: 0.75
  }
}
layer {
  name: "conv2"
  type: "Convolution"
  bottom: "norm1"
  top: "conv2"
  param {
    lr_mult: 1
    decay_mult: 1
  }
  param {
    lr_mult: 2
    decay_mult: 0
  }
  convolution_param {
    num_output: 256
    pad: 2
    kernel_size: 5
    group: 2
    weight_filler {
      type: "gaussian"
      std: 0.01
    }
    bias_filler {
      type: "constant"
      value: 1
    }
  }
}
layer {
  name: "relu2"
  type: "ReLU"
  bottom: "conv2"
  top: "conv2"
}
layer {
  name: "pool2"
  type: "Pooling"
  bottom: "conv2"
  top: "pool2"
  pooling_param {
    pool: MAX
    kernel_size: 3
    stride: 2
  }
}
layer {
  name: "norm2"
  type: "LRN"
  bottom: "pool2"
  top: "norm2"
  lrn_param {
    local_size: 5
    alpha: 0.0001
    beta: 0.75
  }
}
layer {
  name: "conv3"
  type: "Convolution"
  bottom: "norm2"
  top: "conv3"
  param {
    lr_mult: 1
    decay_mult: 1
  }
  param {
    lr_mult: 2
    decay_mult: 0
  }
  convolution_param {
    num_output: 384
    pad: 1
    kernel_size: 3
    weight_filler {
      type: "gaussian"
      std: 0.01
    }
    bias_filler {
      type: "constant"
      value: 0
    }
  }
}
layer {
  name: "relu3"
  type: "ReLU"
  bottom: "conv3"
  top: "conv3"
}
layer {
  name: "conv4"
  type: "Convolution"
  bottom: "conv3"
  top: "conv4"
  param {
    lr_mult: 1
    decay_mult: 1
  }
  param {
    lr_mult: 2
    decay_mult: 0
  }
  convolution_param {
    num_output: 384
    pad: 1
    kernel_size: 3
    group: 2
    weight_filler {
      type: "gaussian"
      std: 0.01
    }
    bias_filler {
      type: "constant"
      value: 1
    }
  }
}
layer {
  name: "relu4"
  type: "ReLU"
  bottom: "conv4"
  top: "conv4"
}
layer {
  name: "conv5"
  type: "Convolution"
  bottom: "conv4"
  top: "conv5"
  param {
    lr_mult: 1
    decay_mult: 1
  }
  param {
    lr_mult: 2
    decay_mult: 0
  }
  convolution_param {
    num_output: 256
    pad: 1
    kernel_size: 3
    group: 2
    weight_filler {
      type: "gaussian"
      std: 0.01
    }
    bias_filler {
      type: "constant"
      value: 1
    }
  }
}
layer {
  name: "relu5"
  type: "ReLU"
  bottom: "conv5"
  top: "conv5"
}
layer {
  name: "pool5"
  type: "Pooling"
  bottom: "conv5"
  top: "pool5"
  pooling_param {
    pool: MAX
    kernel_size: 3
    stride: 2
  }
}
layer {
  name: "fc6"
  type: "InnerProduct"
  bottom: "pool5"
  top: "fc6"
  param {
    lr_mult: 1
    decay_mult: 1
  }
  param {
    lr_mult: 2
    decay_mult: 0
  }
  inner_product_param {
    num_output: 4096
    weight_filler {
      type: "gaussian"
      std: 0.005
    }
    bias_filler {
      type: "constant"
      value: 1
    }
  }
}
layer {
  name: "relu6"
  type: "ReLU"
  bottom: "fc6"
  top: "fc6"
}
layer {
  name: "drop6"
  type: "Dropout"
  bottom: "fc6"
  top: "fc6"
  dropout_param {
    dropout_ratio: 0.5
  }
}
layer {
  name: "fc7"
  type: "InnerProduct"
  bottom: "fc6"
  top: "fc7"
  param {
    lr_mult: 1
    decay_mult: 1
  }
  param {
    lr_mult: 2
    decay_mult: 0
  }
  inner_product_param {
    num_output: 4096
    weight_filler {
      type: "gaussian"
      std: 0.005
    }
    bias_filler {
      type: "constant"
      value: 1
    }
  }
}
layer {
  name: "relu7"
  type: "ReLU"
  bottom: "fc7"
  top: "fc7"
}
layer {
  name: "drop7"
  type: "Dropout"
  bottom: "fc7"
  top: "fc7"
  dropout_param {
    dropout_ratio: 0.5
  }
}
layer {
  name: "fc8"
  type: "InnerProduct"
  bottom: "fc7"
  top: "fc8"
  param {
    lr_mult: 1
    decay_mult: 1
  }
  param {
    lr_mult: 2
    decay_mult: 0
  }
  inner_product_param {
    num_output: 256
    weight_filler {
      type: "gaussian"
      std: 0.01
    }
    bias_filler {
      type: "constant"
      value: 0
    }
  }
}
layer {
  name: "accuracy"
  type: "Accuracy"
  bottom: "fc8"
  bottom: "label"
  top: "accuracy"
  include {
    phase: TEST
  }
}
layer {
  name: "loss"
  type: "SoftmaxWithLoss"
  bottom: "fc8"
  bottom: "label"
  top: "loss"
}
I0324 14:01:51.354034  6661 layer_factory.hpp:77] Creating layer data
I0324 14:01:51.354079  6661 db_lmdb.cpp:35] Opened lmdb /home/rbruce/caffeV2/adbloq/databases/validation_lmdb
I0324 14:01:51.354089  6661 net.cpp:84] Creating Layer data
I0324 14:01:51.354092  6661 net.cpp:380] data -> data
I0324 14:01:51.354097  6661 net.cpp:380] data -> label
I0324 14:01:51.354101  6661 data_transformer.cpp:25] Loading mean file from: /home/rbruce/caffeV2/adbloq/databases/mean.binaryproto
I0324 14:01:51.355365  6661 data_layer.cpp:45] output data size: 50,3,224,224
I0324 14:01:51.390889  6661 net.cpp:122] Setting up data
I0324 14:01:51.390907  6661 net.cpp:129] Top shape: 50 3 224 224 (7526400)
I0324 14:01:51.390909  6661 net.cpp:129] Top shape: 50 (50)
I0324 14:01:51.390911  6661 net.cpp:137] Memory required for data: 30105800
I0324 14:01:51.390915  6661 layer_factory.hpp:77] Creating layer label_data_1_split
I0324 14:01:51.390923  6661 net.cpp:84] Creating Layer label_data_1_split
I0324 14:01:51.390924  6661 net.cpp:406] label_data_1_split <- label
I0324 14:01:51.390928  6661 net.cpp:380] label_data_1_split -> label_data_1_split_0
I0324 14:01:51.390934  6661 net.cpp:380] label_data_1_split -> label_data_1_split_1
I0324 14:01:51.391048  6661 net.cpp:122] Setting up label_data_1_split
I0324 14:01:51.391057  6661 net.cpp:129] Top shape: 50 (50)
I0324 14:01:51.391060  6661 net.cpp:129] Top shape: 50 (50)
I0324 14:01:51.391062  6661 net.cpp:137] Memory required for data: 30106200
I0324 14:01:51.391064  6661 layer_factory.hpp:77] Creating layer conv1
I0324 14:01:51.391072  6661 net.cpp:84] Creating Layer conv1
I0324 14:01:51.391074  6661 net.cpp:406] conv1 <- data
I0324 14:01:51.391078  6661 net.cpp:380] conv1 -> conv1
I0324 14:01:51.393921  6661 net.cpp:122] Setting up conv1
I0324 14:01:51.393930  6661 net.cpp:129] Top shape: 50 96 54 54 (13996800)
I0324 14:01:51.393932  6661 net.cpp:137] Memory required for data: 86093400
I0324 14:01:51.393939  6661 layer_factory.hpp:77] Creating layer relu1
I0324 14:01:51.393944  6661 net.cpp:84] Creating Layer relu1
I0324 14:01:51.393945  6661 net.cpp:406] relu1 <- conv1
I0324 14:01:51.393947  6661 net.cpp:367] relu1 -> conv1 (in-place)
I0324 14:01:51.393951  6661 net.cpp:122] Setting up relu1
I0324 14:01:51.393954  6661 net.cpp:129] Top shape: 50 96 54 54 (13996800)
I0324 14:01:51.393955  6661 net.cpp:137] Memory required for data: 142080600
I0324 14:01:51.393957  6661 layer_factory.hpp:77] Creating layer pool1
I0324 14:01:51.393962  6661 net.cpp:84] Creating Layer pool1
I0324 14:01:51.393965  6661 net.cpp:406] pool1 <- conv1
I0324 14:01:51.393970  6661 net.cpp:380] pool1 -> pool1
I0324 14:01:51.393995  6661 net.cpp:122] Setting up pool1
I0324 14:01:51.393997  6661 net.cpp:129] Top shape: 50 96 27 27 (3499200)
I0324 14:01:51.393999  6661 net.cpp:137] Memory required for data: 156077400
I0324 14:01:51.394001  6661 layer_factory.hpp:77] Creating layer norm1
I0324 14:01:51.394004  6661 net.cpp:84] Creating Layer norm1
I0324 14:01:51.394006  6661 net.cpp:406] norm1 <- pool1
I0324 14:01:51.394008  6661 net.cpp:380] norm1 -> norm1
I0324 14:01:51.394026  6661 net.cpp:122] Setting up norm1
I0324 14:01:51.394028  6661 net.cpp:129] Top shape: 50 96 27 27 (3499200)
I0324 14:01:51.394031  6661 net.cpp:137] Memory required for data: 170074200
I0324 14:01:51.394033  6661 layer_factory.hpp:77] Creating layer conv2
I0324 14:01:51.394039  6661 net.cpp:84] Creating Layer conv2
I0324 14:01:51.394042  6661 net.cpp:406] conv2 <- norm1
I0324 14:01:51.394045  6661 net.cpp:380] conv2 -> conv2
I0324 14:01:51.400207  6661 net.cpp:122] Setting up conv2
I0324 14:01:51.400213  6661 net.cpp:129] Top shape: 50 256 27 27 (9331200)
I0324 14:01:51.400214  6661 net.cpp:137] Memory required for data: 207399000
I0324 14:01:51.400219  6661 layer_factory.hpp:77] Creating layer relu2
I0324 14:01:51.400223  6661 net.cpp:84] Creating Layer relu2
I0324 14:01:51.400224  6661 net.cpp:406] relu2 <- conv2
I0324 14:01:51.400236  6661 net.cpp:367] relu2 -> conv2 (in-place)
I0324 14:01:51.400240  6661 net.cpp:122] Setting up relu2
I0324 14:01:51.400243  6661 net.cpp:129] Top shape: 50 256 27 27 (9331200)
I0324 14:01:51.400244  6661 net.cpp:137] Memory required for data: 244723800
I0324 14:01:51.400246  6661 layer_factory.hpp:77] Creating layer pool2
I0324 14:01:51.400249  6661 net.cpp:84] Creating Layer pool2
I0324 14:01:51.400251  6661 net.cpp:406] pool2 <- conv2
I0324 14:01:51.400254  6661 net.cpp:380] pool2 -> pool2
I0324 14:01:51.400276  6661 net.cpp:122] Setting up pool2
I0324 14:01:51.400280  6661 net.cpp:129] Top shape: 50 256 13 13 (2163200)
I0324 14:01:51.400282  6661 net.cpp:137] Memory required for data: 253376600
I0324 14:01:51.400285  6661 layer_factory.hpp:77] Creating layer norm2
I0324 14:01:51.400286  6661 net.cpp:84] Creating Layer norm2
I0324 14:01:51.400288  6661 net.cpp:406] norm2 <- pool2
I0324 14:01:51.400290  6661 net.cpp:380] norm2 -> norm2
I0324 14:01:51.400307  6661 net.cpp:122] Setting up norm2
I0324 14:01:51.400310  6661 net.cpp:129] Top shape: 50 256 13 13 (2163200)
I0324 14:01:51.400311  6661 net.cpp:137] Memory required for data: 262029400
I0324 14:01:51.400313  6661 layer_factory.hpp:77] Creating layer conv3
I0324 14:01:51.400318  6661 net.cpp:84] Creating Layer conv3
I0324 14:01:51.400321  6661 net.cpp:406] conv3 <- norm2
I0324 14:01:51.400326  6661 net.cpp:380] conv3 -> conv3
I0324 14:01:51.418504  6661 net.cpp:122] Setting up conv3
I0324 14:01:51.418519  6661 net.cpp:129] Top shape: 50 384 13 13 (3244800)
I0324 14:01:51.418521  6661 net.cpp:137] Memory required for data: 275008600
I0324 14:01:51.418530  6661 layer_factory.hpp:77] Creating layer relu3
I0324 14:01:51.418540  6661 net.cpp:84] Creating Layer relu3
I0324 14:01:51.418545  6661 net.cpp:406] relu3 <- conv3
I0324 14:01:51.418550  6661 net.cpp:367] relu3 -> conv3 (in-place)
I0324 14:01:51.418557  6661 net.cpp:122] Setting up relu3
I0324 14:01:51.418561  6661 net.cpp:129] Top shape: 50 384 13 13 (3244800)
I0324 14:01:51.418563  6661 net.cpp:137] Memory required for data: 287987800
I0324 14:01:51.418566  6661 layer_factory.hpp:77] Creating layer conv4
I0324 14:01:51.418573  6661 net.cpp:84] Creating Layer conv4
I0324 14:01:51.418576  6661 net.cpp:406] conv4 <- conv3
I0324 14:01:51.418578  6661 net.cpp:380] conv4 -> conv4
I0324 14:01:51.432332  6661 net.cpp:122] Setting up conv4
I0324 14:01:51.432345  6661 net.cpp:129] Top shape: 50 384 13 13 (3244800)
I0324 14:01:51.432348  6661 net.cpp:137] Memory required for data: 300967000
I0324 14:01:51.432351  6661 layer_factory.hpp:77] Creating layer relu4
I0324 14:01:51.432359  6661 net.cpp:84] Creating Layer relu4
I0324 14:01:51.432361  6661 net.cpp:406] relu4 <- conv4
I0324 14:01:51.432365  6661 net.cpp:367] relu4 -> conv4 (in-place)
I0324 14:01:51.432371  6661 net.cpp:122] Setting up relu4
I0324 14:01:51.432374  6661 net.cpp:129] Top shape: 50 384 13 13 (3244800)
I0324 14:01:51.432377  6661 net.cpp:137] Memory required for data: 313946200
I0324 14:01:51.432380  6661 layer_factory.hpp:77] Creating layer conv5
I0324 14:01:51.432386  6661 net.cpp:84] Creating Layer conv5
I0324 14:01:51.432389  6661 net.cpp:406] conv5 <- conv4
I0324 14:01:51.432392  6661 net.cpp:380] conv5 -> conv5
I0324 14:01:51.441846  6661 net.cpp:122] Setting up conv5
I0324 14:01:51.441862  6661 net.cpp:129] Top shape: 50 256 13 13 (2163200)
I0324 14:01:51.441865  6661 net.cpp:137] Memory required for data: 322599000
I0324 14:01:51.441874  6661 layer_factory.hpp:77] Creating layer relu5
I0324 14:01:51.441881  6661 net.cpp:84] Creating Layer relu5
I0324 14:01:51.441884  6661 net.cpp:406] relu5 <- conv5
I0324 14:01:51.441887  6661 net.cpp:367] relu5 -> conv5 (in-place)
I0324 14:01:51.441893  6661 net.cpp:122] Setting up relu5
I0324 14:01:51.441897  6661 net.cpp:129] Top shape: 50 256 13 13 (2163200)
I0324 14:01:51.441898  6661 net.cpp:137] Memory required for data: 331251800
I0324 14:01:51.441900  6661 layer_factory.hpp:77] Creating layer pool5
I0324 14:01:51.441905  6661 net.cpp:84] Creating Layer pool5
I0324 14:01:51.441916  6661 net.cpp:406] pool5 <- conv5
I0324 14:01:51.441920  6661 net.cpp:380] pool5 -> pool5
I0324 14:01:51.441948  6661 net.cpp:122] Setting up pool5
I0324 14:01:51.441952  6661 net.cpp:129] Top shape: 50 256 6 6 (460800)
I0324 14:01:51.441954  6661 net.cpp:137] Memory required for data: 333095000
I0324 14:01:51.441956  6661 layer_factory.hpp:77] Creating layer fc6
I0324 14:01:51.441961  6661 net.cpp:84] Creating Layer fc6
I0324 14:01:51.441962  6661 net.cpp:406] fc6 <- pool5
I0324 14:01:51.441965  6661 net.cpp:380] fc6 -> fc6
I0324 14:01:52.205909  6661 net.cpp:122] Setting up fc6
I0324 14:01:52.205925  6661 net.cpp:129] Top shape: 50 4096 (204800)
I0324 14:01:52.205927  6661 net.cpp:137] Memory required for data: 333914200
I0324 14:01:52.205934  6661 layer_factory.hpp:77] Creating layer relu6
I0324 14:01:52.205941  6661 net.cpp:84] Creating Layer relu6
I0324 14:01:52.205945  6661 net.cpp:406] relu6 <- fc6
I0324 14:01:52.205948  6661 net.cpp:367] relu6 -> fc6 (in-place)
I0324 14:01:52.205953  6661 net.cpp:122] Setting up relu6
I0324 14:01:52.205957  6661 net.cpp:129] Top shape: 50 4096 (204800)
I0324 14:01:52.205960  6661 net.cpp:137] Memory required for data: 334733400
I0324 14:01:52.205961  6661 layer_factory.hpp:77] Creating layer drop6
I0324 14:01:52.205965  6661 net.cpp:84] Creating Layer drop6
I0324 14:01:52.205966  6661 net.cpp:406] drop6 <- fc6
I0324 14:01:52.205968  6661 net.cpp:367] drop6 -> fc6 (in-place)
I0324 14:01:52.205988  6661 net.cpp:122] Setting up drop6
I0324 14:01:52.205992  6661 net.cpp:129] Top shape: 50 4096 (204800)
I0324 14:01:52.205994  6661 net.cpp:137] Memory required for data: 335552600
I0324 14:01:52.205996  6661 layer_factory.hpp:77] Creating layer fc7
I0324 14:01:52.206002  6661 net.cpp:84] Creating Layer fc7
I0324 14:01:52.206007  6661 net.cpp:406] fc7 <- fc6
I0324 14:01:52.206010  6661 net.cpp:380] fc7 -> fc7
I0324 14:01:52.545507  6661 net.cpp:122] Setting up fc7
I0324 14:01:52.545522  6661 net.cpp:129] Top shape: 50 4096 (204800)
I0324 14:01:52.545524  6661 net.cpp:137] Memory required for data: 336371800
I0324 14:01:52.545532  6661 layer_factory.hpp:77] Creating layer relu7
I0324 14:01:52.545541  6661 net.cpp:84] Creating Layer relu7
I0324 14:01:52.545544  6661 net.cpp:406] relu7 <- fc7
I0324 14:01:52.545549  6661 net.cpp:367] relu7 -> fc7 (in-place)
I0324 14:01:52.545557  6661 net.cpp:122] Setting up relu7
I0324 14:01:52.545562  6661 net.cpp:129] Top shape: 50 4096 (204800)
I0324 14:01:52.545563  6661 net.cpp:137] Memory required for data: 337191000
I0324 14:01:52.545567  6661 layer_factory.hpp:77] Creating layer drop7
I0324 14:01:52.545572  6661 net.cpp:84] Creating Layer drop7
I0324 14:01:52.545574  6661 net.cpp:406] drop7 <- fc7
I0324 14:01:52.545578  6661 net.cpp:367] drop7 -> fc7 (in-place)
I0324 14:01:52.545598  6661 net.cpp:122] Setting up drop7
I0324 14:01:52.545600  6661 net.cpp:129] Top shape: 50 4096 (204800)
I0324 14:01:52.545603  6661 net.cpp:137] Memory required for data: 338010200
I0324 14:01:52.545605  6661 layer_factory.hpp:77] Creating layer fc8
I0324 14:01:52.545611  6661 net.cpp:84] Creating Layer fc8
I0324 14:01:52.545614  6661 net.cpp:406] fc8 <- fc7
I0324 14:01:52.545617  6661 net.cpp:380] fc8 -> fc8
I0324 14:01:52.566992  6661 net.cpp:122] Setting up fc8
I0324 14:01:52.567008  6661 net.cpp:129] Top shape: 50 256 (12800)
I0324 14:01:52.567010  6661 net.cpp:137] Memory required for data: 338061400
I0324 14:01:52.567015  6661 layer_factory.hpp:77] Creating layer fc8_fc8_0_split
I0324 14:01:52.567021  6661 net.cpp:84] Creating Layer fc8_fc8_0_split
I0324 14:01:52.567023  6661 net.cpp:406] fc8_fc8_0_split <- fc8
I0324 14:01:52.567028  6661 net.cpp:380] fc8_fc8_0_split -> fc8_fc8_0_split_0
I0324 14:01:52.567032  6661 net.cpp:380] fc8_fc8_0_split -> fc8_fc8_0_split_1
I0324 14:01:52.567057  6661 net.cpp:122] Setting up fc8_fc8_0_split
I0324 14:01:52.567061  6661 net.cpp:129] Top shape: 50 256 (12800)
I0324 14:01:52.567064  6661 net.cpp:129] Top shape: 50 256 (12800)
I0324 14:01:52.567065  6661 net.cpp:137] Memory required for data: 338163800
I0324 14:01:52.567075  6661 layer_factory.hpp:77] Creating layer accuracy
I0324 14:01:52.567080  6661 net.cpp:84] Creating Layer accuracy
I0324 14:01:52.567082  6661 net.cpp:406] accuracy <- fc8_fc8_0_split_0
I0324 14:01:52.567085  6661 net.cpp:406] accuracy <- label_data_1_split_0
I0324 14:01:52.567087  6661 net.cpp:380] accuracy -> accuracy
…
